1. Przeprojektować notatnik 'zad_3_cnnHybrid.ipynb'.
1.1. Wczytywanie kompletnego datasetu mnist'a ze zbioru tensorflow.keras.datasets
1.2. Przeprojektować model w celu uzyskania takiej architektury:
_________________________________________________________________
Layer (type)                 Output Shape              Param #   
=================================================================
conv2d_23 (Conv2D)           (None, 14, 84, 16)        160       
_________________________________________________________________
conv2d_24 (Conv2D)           (None, 7, 42, 24)         3480      
_________________________________________________________________
conv2d_25 (Conv2D)           (None, 4, 21, 43)         9331      
_________________________________________________________________
conv2d_26 (Conv2D)           (None, 2, 11, 40)         15520     
_________________________________________________________________
conv2d_27 (Conv2D)           (None, 1, 6, 48)          17328     
_________________________________________________________________
dropout_5 (Dropout)          (None, 1, 6, 48)          0         
_________________________________________________________________
reshape_5 (Reshape)          (None, 6, 48)             0         
_________________________________________________________________
lstm_10 (LSTM)               (None, 6, 64)             28928     
_________________________________________________________________
lstm_11 (LSTM)               (None, 6, 32)             12416     
_________________________________________________________________
dense_5 (Dense)              (None, 6, 10)             330       
=================================================================
Total params: 87,493
Trainable params: 87,493
Non-trainable params: 0
_________________________________________________________________

1.3. Trening i test nowego modelu.
1.4. Wyniki wystarczy zaprezentować w notatniku.

2. Przeprojektować notatnik 'zad4_sol.ipynb'
2.1. Wczytywanie datasetu fashion_mnist'a ze zbioru tensorflow.keras.datasets
…
